backend/api/models/best_wildfire_model.pth (torch, 17756 bytes, 34 tensors)

conv1.weight f4 [8, 4, 3, 3]
00000000: 46de b23d 6b08 ebbd ad41 2ebe 80f7 43bc
00000010: fbdc 74bd 1b08 6abe 163c 183e 7fba babd
00000020: 8cf6 37be d668 a93d c2cc 6e3d 46e4 03be
00000030: 0804 6f3d 995b 2abd ebbb dfbb 6740 05be
00000040: a6ae a33c bb60 47be c711 773e 0b75 903d
00000050: 4c95 df3d b1e9 963d 4d69 453e c023 033e
00000060: 1c50 a53d bee4 183e f8ed f33c ac16 523e
00000070: 649d 653d a93a bbbe fb0f df3e 384d 2cbe
00000080: 1f9d f0be 1582 ea3e b41d f63d 1246 0ebe
00000090: c70c d43d c2de 723e c65b 073e d7c9 4f3d
000000a0: c34e 6b3e 09ab 333e 29e4 cb3d ae98 083c
000000b0: 1ecc c03d ca2a 95bd e99f 2dbe 0637 2abe
000000c0: eb81 cebd afba 7fbd 6358 b2bd 0d5f d8bc
000000d0: 5ac3 d5bd 71fe 11be 79b1 c53d e4ae e5bc
000000e0: 6b5e aa3d f822 a2bc 145c 01be b34f 1bbe
000000f0: 288e 57bd 2cfa 21be 9846 d43d c33a 243e
00000100: 4807 4dbe b7f7 ebbe c20a 5e3e 500f bd3e
00000110: aaeb f93e e2b7 90be 65eb d73e 442b 803f
00000120: 3a28 0e3e feb4 1e3d 20ab 813e 1b13 aa3d
00000130: 4525 41be a186 c8bd d953 1e3e 264d cebd
00000140: 6fb3 693d 848d 063c b010 70be 03a6 9a3e
00000150: 111f 60bd 35d9 8dbe 1989 1ebd 5b1a 953e
00000160: a926 b6be 3edf 90bd 9f68 f4bd c264 8cbc
00000170: a4f0 9f3e d1ea 053c a7db 23be aeb2 1c3d
00000180: 0cea 903e d6db 60be ee05 0abd 8df6 6dba
00000190: 6cf4 b13d 0186 b5bd 7dc9 be3d a1c3 abbd
000001a0: 90d9 bb3d c539 8dbd 27d9 dd3d 7c55 75bd
000001b0: 8010 3d3e b494 14bd 2373 75bb c5c3 f63d
000001c0: 844e 813d 1463 253e ad72 aa3c dfbd 2d3d
000001d0: 6344 c83d 1fbe ce3d 81e1 363e b877 633c
000001e0: c07a 5b3e fd1b 253e a3fd 9ebd 4e94 4e3e
000001f0: cbfc 683e 5fb4 993d 9269 9ebe 0518 04bf
00000200: 443c 06be 4f63 9bbe a067 0bbf 9f61 72bd
00000210: 9c2e bdbe 18f2 a1be 0e5d 29bd 1b00 df3c
00000220: 46ec 6abd fc88 923c 03d8 54bd 7ad5 cc3d
00000230: e9c2 043d 3c00 793d bc19 2a3d 7897 6cbd
00000240: a40a 63be d8f1 08be d654 99be 063e 1ebd
00000250: 2a3b 91bd da51 97be 406f 083e a7f2 f2bd
00000260: db37 45bd 3bc3 933b ac7d 5bbe cb76 3abe
00000270: 6f2e 9dbd d8e6 8d3b c183 84be 36cf 5f3d
00000280: 3ba7 823d 86e9 55bc 637b 1e3e f843 8a3d
00000290: bfa3 8a3d a5e9 8f3e 5663 473e 1819 27bd
000002a0: d7d2 943e 0740 8a3e 6872 e03c 2b04 19be
000002b0: 72a0 38be 143a 16bc a35b 74be d3ae e93c
000002c0: 733c 403e e671 84bc 10b9 d7bb b368 29be
000002d0: 8367 c63d 41c5 673e 9361 f23d dcc3 f93d
000002e0: a686 783e f643 483e 8e89 913b b9d1 853e
000002f0: 58a3 b03e dfb6 f9bd ef5c 29be 671f 69be
00000300: e987 64be a8e8 a3bd 129d debd 5d42 45be
00000310: 7a23 17be 4e70 71be 60b6 f7bd 41e5 fabd
00000320: bc66 aa3d d7b7 1fbd 8cce 3fbe 55c0 debd
00000330: 3c1f 273e 198b c63d f60c 4fbc 7ec7 b53d
00000340: 7430 b8bb ee6a c33c 53ff 61bd cee6 863c
00000350: c59a bebd e118 003d 51c5 073d 3bb0 37bd
00000360: db64 433d 5972 843e d0cf 34bc b8c4 043f
00000370: 20f4 003f 3d43 733e a24a c43e 2526 0f3e
00000380: 3883 523d ac2f 5dbe 1948 87be 5f7a 06be
00000390: 5816 35be 0f67 cfbd bc8b b2be 692d d6bc
000003a0: 3ee9 2cbe 0715 81be f5ff 043e 1b76 edbb
000003b0: 5abf 53bd 6fda 003e e3f0 01bd 2aac 0cbe
000003c0: 9849 d83d 5c99 ca3d 387f 1dbc be79 433e
000003d0: c8e9 debc 4187 093d dd2a 8cbc 75f1 2a3e
000003e0: 7c80 f73d 7f4a 21be f3a5 23ba b317 973d
000003f0: 803a 7f3e 3a6f dd3d bae6 c83e 8ed2 893d
0.087338015 -0.11476215 -0.17017241 -0.011960864 -0.059781056 -0.22854654 0.14866671 -0.091176026
-0.17965144 0.08271949 0.05830074 -0.12880048 0.058353454 -0.04159126 -0.0068278215 -0.13012849
0.01998074 -0.19470493 0.24127875 0.07053574 0.10917148 0.07368792 0.1927845 0.12806606
0.0807192 0.14931008 0.029776558 0.20516461 0.056058303 -0.36568192 0.4356688 -0.16826332
-0.46994874 0.4580237 0.12017384 -0.13893917 0.103539996 0.23717788 0.13218603 0.0507296
0.22979264 0.17545713 0.099556275 0.008337183 0.09413932 -0.07283552 -0.16955532 -0.16622552
-0.10083374 -0.062433895 -0.08708265 -0.026412511 -0.10437651 -0.14257218 0.09652991 -0.028037496
0.0831879 -0.019792065 -0.12632781 -0.15167122 -0.052625805 -0.15818089 0.10365027 0.16038041
-0.20022309 -0.4608743 0.21683791 0.36925745 0.4881261 -0.2826529 0.4217178 1.0013204
0.13882533 0.038746826 0.2532587 0.08304425 -0.18861873 -0.097913034 0.15461673 -0.10073309
0.057055887 0.008212451 -0.23443866 0.30204782 -0.054717127 -0.27704778 -0.038704965 0.2912167
-0.3557637 -0.0707383 -0.119340174 -0.017137889 0.31238282 0.00817366 -0.1600176 0.03825634
0.28303564 -0.21958861 -0.03369706 -0.00090775714 0.08689198 -0.0886345 0.093157746 -0.08386923
0.09172356 -0.06895784 0.10832434 -0.059895977 0.18463326 -0.036274627 -0.003745266 0.12049059
0.06313804 0.16151077 0.020806635 0.042417403 0.09778669 0.100948565 0.1785946 0.013883524
0.21433544 0.16123958 -0.07763221 0.20173761 0.22752683 0.07505106 -0.3093992 -0.5159915
-0.13108927 -0.30349204 -0.54454994 -0.05917513 -0.36949623 -0.31630015 -0.04134851 0.02722173
-0.057354234 0.017887585 -0.051963817 0.10001655 0.032412443 0.06079124 0.04152845 -0.05776164
-0.22172028 -0.13373506 -0.29947537 -0.03863337 -0.07091363 -0.29554635 0.13323689 -0.118626885
-0.04814897 0.0045093573 -0.21434659 -0.18209378 -0.07674872 0.0043304972 -0.2588177 0.05464097
0.06379553 -0.013056165 0.15476756 0.06751245 0.06769513 0.28107944 0.19471487 -0.040795416
0.29067108 0.27001974 0.027398303 -0.14942996 -0.18029955 -0.00916912 -0.23863082 0.028525745
0.1877306 -0.016167592 -0.0065833405 -0.16543846 0.09687712 0.2263384 0.11835017 0.1219556
0.24270114 0.19557175 0.0044414466 0.26136568 0.3449962 -0.12193083 -0.16539358 -0.22765885
-0.2231747 -0.0800336 -0.108698025 -0.19263597 -0.14759627 -0.23577997 -0.12095332 -0.12250758
0.08320376 -0.038993683 -0.18731135 -0.10876528 0.16320509 0.096944995 -0.0126373675 0.08875941
-0.0056210104 0.023854699 -0.055175137 0.016467478 -0.09306864 0.031273726 0.03314716 -0.0448458
0.047703605 0.2586849 -0.0110358745 0.5186267 0.50372505 0.23756118 0.3833819 0.13979395
0.05139467 -0.21600217 -0.26422194 -0.13132618 -0.17684305 -0.10127079 -0.34872234 -0.0261447
-0.1688585 -0.25211355 0.12988265 -0.0072467453 -0.05169616 0.12583326 -0.031723868 -0.1373755
0.10560912 0.09892532 -0.009612851 0.1908941 -0.027211085 0.033576254 -0.017110283 0.16693671
0.12085053 -0.15751074 -0.0006242685 0.07377567 0.2492466 0.108122304 0.3923853 0.06729613

conv1.bias f4 [8]
00000000: c5fc 95bd 5d4e 3ebd 5a70 c7bc 01ef 9c3d
00000010: 56ce 913e 0362 a83b ae5b 4f3b 2d6e 89bb
-0.073236026 -0.04646145 -0.024345566 0.07662774 0.28477734 0.005138637 0.0031640339 -0.004194042

bn1.weight f4 [8]
00000000: e192 163f 8d49 303f c670 463f 8e1d 6b3f
00000010: ef58 3f3f c4ed 713f 83c6 3b3f 959d 253f
0.5881787 0.6886223 0.7751583 0.9184197 0.74745077 0.94503427 0.7334978 0.64693576

bn1.bias f4 [8]
00000000: 2e6a 40be 9341 1cbf d851 c6be acf1 f8be
00000010: 28fa 0e3d f7a4 82bd 1c45 c9be 1d7e 1dbe
-0.18790504 -0.6103756 -0.38734317 -0.4862188 0.034906536 -0.06379121 -0.3931054 -0.1538014

bn1.running_mean f4 [8]
00000000: 77e3 063e 5d96 82bf e5c8 aabd 0906 14bf
00000010: 6f29 3a3f d1ff 88be 30bb 84be 076a 02bf
0.13172708 -1.0202137 -0.08339099 -0.5782171 0.7271947 -0.26757672 -0.25924063 -0.50943035

bn1.running_var f4 [8]
00000000: 2296 7d3e 014c 343f 7736 373d dc71 c33f
00000010: beb5 db3e 81cd 5d3e 2a7a a73e 45d3 d03e
0.24764302 0.7042847 0.044729676 1.5269122 0.42912096 0.21660425 0.3271039 0.40786186

depthwise1.weight f4 [8, 1, 3, 3]
00000000: 72f3 fbbd ca91 853d 2cb0 943c 19f0 31bc
00000010: b05b c6be a4c5 d83e 1a8c 7dbe d603 9bbe
00000020: 990d 8a3e 64b8 03be 66c8 5fbe bd12 d0bd
00000030: 8b1e 82be 4393 593e 7cdd 4fbe 5c48 98be
00000040: 3d5f 87bd b8c3 b2be f729 bdbd c224 8dbe
00000050: e6d5 d6be adab 80be 29cd a5be a799 a7be
00000060: 07cb 98be 8ca0 26be 8d08 56be f883 843e
00000070: d3fd b73e 12eb a3bd 0f35 833e 4894 d53e
00000080: 4a17 4fbd 672e 493e 83c5 9d3d 0492 03bf
00000090: 408c cdbb ceb7 c53e 9d2c 03be 9971 f03e
000000a0: beb6 633e 22e5 ff3c b8ec 6dbd f40f 47bd
000000b0: 3eaf 65be b647 8a3e 7014 803e 2e15 75be
000000c0: 1cc4 493e 2a42 943e fdff 4abe 3825 be3d
000000d0: 9fc4 3e3e 8242 d2be d1b2 c73c 61e5 45bd
000000e0: 8f03 18be dccf 83bc 3a1c 56bd bbac a13e
000000f0: 29d9 203e 39b2 bd3c 0beb 9a3e bbd1 b9bb
00000100: 3a76 af3e 159a 003d 65ef 6ebe 99cc 663e
00000110: 710e 5b3e a958 bc3c ffeb ab3e e818 dbbc
-0.12302293 0.06521948 0.018150412 -0.010860466 -0.38741827 0.42338288 -0.24760476 -0.30276364
0.269635 -0.12863308 -0.2185379 -0.10159824 -0.25413927 0.21247582 -0.20299333 -0.29742706
-0.06609962 -0.34914947 -0.0923652 -0.27567106 -0.41960067 -0.25130978 -0.32383087 -0.32734415
-0.29842398 -0.16272181 -0.209017 0.25881934 0.3593584 -0.080038205 0.25626418 0.41714692
-0.05055932 0.19646607 0.07703688 -0.5139468 -0.0062728226 0.38616794 -0.12809987 0.46961668
0.2223768 0.031237189 -0.05808708 -0.0485992 -0.22430131 0.27007836 0.25015593 -0.2393386
0.19703716 0.2895673 -0.19824214 0.09284443 0.18629692 -0.41066366 0.024377258 -0.048314456
-0.14845107 -0.016090326 -0.052273013 0.31577095 0.1570784 0.023156272 0.3025745 -0.005670754
0.34269887 0.031396944 -0.2333351 0.22538985 0.21392228 0.022991495 0.33578488 -0.026745275

depthwise1.bias f4 [8]
00000000: 595a 88be 337b aebe 0cce f1bd 1abe 67be
00000010: 533d 22be cdcb 69be f36f acbd db2e 3d3e
-0.2663143 -0.3407837 -0.118068784 -0.22631112 -0.15843706 -0.2283165 -0.0841979 0.18474905

pointwise1.weight f4 [8, 8, 1, 1]
00000000: 3d55 b0be cac7 0fbe c20f 003f 8a78 85be
00000010: 4a7c 33be c259 08bf 0d37 c33d a4b5 d93d
00000020: be96 00bf 8bfb 5a3e c6af df3d 4373 e5be
00000030: c399 f43d 1c65 413d 51b1 133e 3be4 693e
00000040: 0039 6f3d f2c3 373d 3d3e eebc 88a9 e2bd
00000050: 4d22 1bbf 83cd 113f 57f8 f63d f40a 1b3e
00000060: c816 d0bd bb15 3e3f d5af a63d 489c 473d
00000070: 98d0 74be f4d1 fbbe 5e08 833e f59c 9ebe
00000080: a6c7 0c3d c556 fb3d 0a49 f53c 604f d13e
00000090: dcd2 51be 5f63 483e 8811 17be 900f 503e
000000a0: 0be2 983d 9c70 f53c 3728 193f 0151 65be
000000b0: 2a9c 5e3e ecda 44be 4ff3 6dbe 0685 bf3c
000000c0: 1508 983b 3f55 76b9 56ec a63d 30d7 de3e
000000d0: 30aa ee3e 68f6 443d e7f9 3e3e bed4 d43d
000000e0: d3b0 893d 9851 523e 978f 14be b50e 2a3f
000000f0: 5cc1 6abd 870c 93bc 8fb9 163e f168 c83e
-0.34440032 -0.14041057 0.50024045 -0.26068527 -0.17527881 -0.5326196 0.095319845 0.10630348
-0.50230014 0.21385019 0.10922198 -0.448145 0.1194339 0.047215566 0.1442311 0.2284097
0.05840397 0.044864602 -0.029082412 -0.11067492 -0.60599214 0.5695421 0.12059086 0.15140897
-0.10160595 0.7425191 0.08139006 0.048733026 -0.23907697 -0.4918362 0.2559232 -0.30979124
0.034370087 0.12272409 0.029942054 0.4088087 -0.20490593 0.19569157 -0.14752781 0.20318437
0.07464989 0.029960923 0.5982699 -0.22394182 0.2173926 -0.19224137 -0.23237346 0.02337886
0.0046396353 -0.00023492145 0.08150546 0.4352355 0.46614218 0.048086554 0.18650018 0.1039214
0.0672318 0.20538938 -0.145079 0.6642869 -0.057313308 -0.01795031 0.14719222 0.39142564

pointwise1.bias f4 [8]
00000000: de47 b0be cf8b 443e ef50 0b3e 6ca1 a8be
00000010: 492c b6be 011a 95be 847b 7fba 7fd4 10bc
-0.3442983 0.19193958 0.13605092 -0.32935655 -0.35580662 -0.29121402 -0.0009745883 -0.0088397255

bn2.weight f4 [8]
00000000: 1887 853f 3f5e 823f 7e1f 623f a4dc 693f
00000010: 49e6 7d3f a441 863f 3eb9 6e3f 1737 643f
1.0431852 1.0185012 0.88329303 0.91352296 0.9917951 1.0488782 0.9325141 0.8914656

bn2.bias f4 [8]
00000000: c438 2e3d 35ef 45be d955 883e 3c6e c23e
00000010: 9539 bfbe ceee fdbe 4edd ddbe 4d7f fd3d
0.042534605 -0.19329531 0.26627997 0.37974727 -0.3734862 -0.49596256 -0.43332905 0.12377796

bn2.running_mean f4 [8]
00000000: c183 93be 206a a73e 17b1 d03d 3fdf 45bf
00000010: 1aa7 d6be 42c3 05bf 3662 55bc 98e3 a43c
-0.28811458 0.32698154 0.10190027 -0.7729377 -0.41924363 -0.52251065 -0.013023904 0.020128056

bn2.running_var f4 [8]
00000000: 5027 ad3d 3861 013d 81c3 a73d df57 183e
00000010: a236 0a3d 1506 e73d 284e e13c 72f1 8a3d
0.08454764 0.031586856 0.08191586 0.1487727 0.03374351 0.11280457 0.027503088 0.06784333

depthwise2.weight f4 [8, 1, 3, 3]
00000000: cbc4 c83d 26cf 803e a724 553e 2a66 37be
00000010: aa9a 403e fe50 cb3d 1aab 3abd a9d2 dd3d
00000020: 9a58 653e 11ae 143f 260d 9bbd 8512 633e
00000030: 532b 943e cd86 e43d c183 e63c 87ee ab3e
00000040: 07e5 36be 3b5c 853e 88a8 6f3e 5146 a63e
00000050: df7e 343e 6712 b2bd d64b c83e a004 02bd
00000060: 56d0 403e a096 943e 1c74 28be 3b86 76bd
00000070: 1a1d 6bbe d86c f1be fa41 843c 5fab edbe
00000080: 44bb 40be a2bb 75bc f5d4 acbd 6def 12be
00000090: 2d69 a6be d93f 693e 1a89 863e 6586 3cbe
000000a0: 66a8 a6bd 8517 f33d bb7f 86be 07a5 2ebd
000000b0: 6014 fe3d e537 b4be 246d 25be 2f14 77be
000000c0: a75f 9fbe dc73 483e a5e3 3dbe f341 23bf
000000d0: e8eb 86be ad74 7dbe 58e8 6e3e 0ac6 bc3e
000000e0: d8aa d33c 6783 3e3e b891 8f3e 6fbb 48bc
000000f0: 6ba2 983e 730a 843e 1d56 123e e1fc 0cbe
00000100: 2cdc e43e dd15 533e 9b82 e43d 548b 0a3f
00000110: 6a0d bebd 194f 23be b473 be3d 4002 0abe
0.0980316 0.25158042 0.20814763 -0.17910066 0.18809 0.099275574 -0.04557333 0.10831196
0.2239708 0.58078104 -0.07570867 0.22175033 0.28939304 0.11158524 0.028138997 0.3358042
-0.17860804 0.2604693 0.23404133 0.32475522 0.17626522 -0.08694916 0.39120358 -0.031742692
0.18829474 0.29021168 -0.16450542 -0.060186606 -0.2296032 -0.47153354 0.016144741 -0.46419808
-0.18821436 -0.014998348 -0.08439056 -0.14349146 -0.32502118 0.22778262 0.26276475 -0.18410642
-0.08137588 0.1186972 -0.26269326 -0.04263785 0.1240623 -0.35198894 -0.16154915 -0.24128793
-0.31127664 0.19575447 -0.18543871 -0.63772506 -0.26351857 -0.2475154 0.2333082 0.36869842
0.0258383 0.18604814 0.28040862 -0.012251719 0.29811415 0.25789222 0.14290662 -0.1376834
0.44699228 0.20613809 0.111577235 0.5411885 -0.09279902 -0.15948142 0.09299412 -0.13477421

depthwise2.bias f4 [8]
00000000: e4f9 09be 538c 4dbe 6460 81be ce45 523e
00000010: 0c55 d63d 5836 05bc bb85 7fbe c119 65bd
-0.13474232 -0.2007306 -0.25268853 0.20534441 0.1046544 -0.008130632 -0.24953358 -0.055932764

pointwise2.weight f4 [8, 8, 1, 1]
00000000: b67f f53d 2846 6f3e a0aa 6b3e a3c8 a73e
00000010: 9a7b 223c da9e c33e 550d 233e 5405 a13e
00000020: d794 083d 819c 2ebe a0ac 02bf e396 8ebe
00000030: 4284 81be d506 87bd 2d0d 76be de1f 9b3e
00000040: dc02 313e 62ba cdbe 52ed 4d3c cd5e 96bd
00000050: 2844 45be d93a c8be 2bdf 0bbe 57c0 4a3d
00000060: 57c9 973e 6c28 b7be 0dcd 873e 8680 eb3c
00000070: e91f 543e 0f44 f6bc bbbc 8a3d 990e c2be
00000080: 55f7 663e 343c 853e 8df4 b4bd bb24 02be
00000090: b9cc a53e 2740 e9be 122a 0fbe 16b1 893e
000000a0: 66ee ea3c fac5 7e3e ed7e bd3e 4eed 83be
000000b0: bd42 12bd f502 7abe 9cca 58be 896a 963b
000000c0: db20 823e c901 72be 7b13 94be d501 a33d
000000d0: d575 943e e66a 56be 0e23 4cbe 1baf 95bc
000000e0: 43c2 0d3e 1a70 9dbd c9dc dbbd 9c55 70be
000000f0: ac01 15bf b731 e9bd 7174 3b3c af9e 36be
0.119872496 0.23366606 0.23014307 0.3277026 0.009917164 0.38207132 0.15923055 0.31449378
0.03334507 -0.17051889 -0.51044655 -0.27849492 -0.25296217 -0.065931 -0.24028464 0.3029775
0.17286247 -0.4018126 0.012568789 -0.073423006 -0.19264281 -0.39107397 -0.1365935 0.049499836
0.29645798 -0.35773027 0.2652363 0.028747808 0.20715298 -0.03006175 0.06774279 -0.37901762
0.22555287 0.26022494 -0.08835707 -0.12709324 0.32382753 -0.45556757 -0.13980892 0.26892918
0.02867813 0.2488021 0.370109 -0.25766987 -0.035708178 -0.2441519 -0.2117104 0.0045903367
0.25415692 -0.23633493 -0.28921112 0.07959334 0.2899615 -0.20939216 -0.19935247 -0.018271973
0.13843636 -0.07687397 -0.10735471 -0.23470157 -0.58205676 -0.113864355 0.011441336 -0.1783397

pointwise2.bias f4 [8]
00000000: fb33 2ebe 2136 493e 9645 bdbd fe7f 933e
00000010: bd07 2fbe 66e5 85be 6cd5 5fbd 65e3 bfbe
-0.17012016 0.19649555 -0.09241788 0.28808588 -0.17092796 -0.2615158 -0.054646894 -0.37478176

bn3.weight f4 [8]
00000000: 9f38 883f 3ff5 9c3f 86cb 8c3f d475 4a3f
00000010: 1fce 7a3f 67ff 983f d1da bc3f de9c 933f
1.0642279 1.2262343 1.099961 0.7908604 0.97970766 1.1952943 1.4754277 1.1532247

bn3.bias f4 [8]
00000000: 91ae 593e 7cf8 79be 5ca5 a2bf c88a 0ebf
00000010: 4141 47be 1084 cdbe 049f 2c3e 99f8 1dbf
0.21257998 -0.24411196 -1.2706714 -0.55680513 -0.19458486 -0.40139818 0.16857535 -0.61707455

bn3.running_mean f4 [8]
00000000: c25b 86be 5265 7d3e 9320 3b3d c7e4 933e
00000010: d351 813e c07c 503e 697e 1cbe 38a4 89be
-0.2624188 0.24745682 0.045685362 0.2888548 0.2525774 0.20360088 -0.15282597 -0.268831

bn3.running_var f4 [8]
00000000: d7ad a43e 36f6 653e 18ff 5b3d eac6 6e3d
00000010: 647f 2a3e abe6 c43d dafe 123e ef86 f73d
0.3216388 0.22457203 0.053710073 0.058295168 0.16650158 0.09614309 0.1435503 0.120862834

skip_conv.weight f4 [8, 8, 3, 3]
00000000: 64db 623d ce92 e23d 1beb 4a3d 36ae 753d
00000010: 0a35 993c 0636 34bc 4f13 803c 9091 3f3d
00000020: b0ec 753c 78f0 eabd 3cfa c7bd f787 d4bd
00000030: 279d a1bd 67dd 6cbd 4aa0 febd bd35 34be
00000040: 0d7a 11be ebdd e4bd 20b5 10bd 3ce9 893c
00000050: ff8e 9cbd eb83 c3bc c239 c93c a267 61bd
00000060: ee0d 9fbc db7a 00bd 2315 c1bd c30b 34be
00000070: 31ff cfbd 5039 76bd cec7 a8be d1a4 3ebe
00000080: 5e31 fd3c df69 4dbe b83c 62bd 4fd9 98bd
00000090: a716 d03d b606 2f3e 549a 1a3d 3b89 ab3a
000000a0: f61a 21bd 4146 dfbb a7fd 693d 81b4 47bd
000000b0: b2d9 a0bd 9afe 72be cce7 7abe ed68 03be
000000c0: 817e 61be e58e 41be 811b 01be 8201 dcbd
000000d0: 0f22 5bbe d0d0 48be 5451 873e 226b 203e
000000e0: 5d41 b43d 5a28 a53e 287c 4f3e b7a6 2f3e
000000f0: 5be4 a23e 6a9b c23d 5fd7 4a3e d321 3bbe
00000100: 131a 70be 0a99 40be 2ef7 37be 804b 45be
00000110: b803 4ebe 8e49 7ebd 94c6 1dbe 8afb 42be
00000120: ae13 c9bc d1de 073e e7d9 0abe 783c 3bbc
00000130: 3750 0dbe 0f56 d0bd 3ffb ae3d bd30 b13c
00000140: e020 be3d f04a e7bd ceb8 9bbc 5821 923b
00000150: 6174 96bd f6e2 a8bb 7d76 b6bb 92b4 b53d
00000160: 1aa5 c1bc d8f4 07bd 8453 023d 604a cdbe
00000170: 9e08 613e 277a 20bd d00a 8abc c3d9 f4bd
00000180: e703 023a c506 633e 3e34 7bbe 6b57 443d
00000190: 2fd1 293d 5340 873d c47e 0dbc 42c9 423d
000001a0: 2f14 cf3c 1492 af3c 6459 19bb 3871 bdbd
000001b0: 1db2 6d3d b730 8f3d 8ddc 8c3d 9a14 fd3d
000001c0: 7317 fcbd ff7c 4e3e f4b1 873d 4894 c8bd
000001d0: 797f 51bd b5e2 853d ff0a f2bd 6eff 25bd
000001e0: 0eb6 6ebc 5efd 88be aa18 86bc 47f9 32be
000001f0: f8b9 04bd 2775 e83c 957d b3be 0faa 6fbe
00000200: 6a4a 1f3e 8013 81be 76f3 a2bc be65 003f
00000210: d08c 673d 2da9 7f3d 901f 4dbe a0d6 543e
00000220: 2378 17be 4c22 553d 2994 0fbe d635 9d3d
00000230: 74d1 50be bedb bd3d 6c93 bf3e 1834 853d
00000240: c584 8f3c 3046 41be f85c c33d a97b 333d
00000250: 143c bbbc 3cd7 2aba 6e6f 933c f192 9b3c
00000260: 5a75 c83c 6fe4 c23d 1bf3 0fbe d351 28bd
00000270: 1f25 b9bc 3ffd 633d 6473 87bb 4686 26bd
00000280: d050 a1bd 29d7 f23d f7a7 c7bc 21c4 583c
00000290: 2f6a 22bc e58b 12bd 372f b63c 01c5 06bc
000002a0: 4bc0 02bd fd6f cd3b ef7d 043c 074a 033e
000002b0: 32ce b4bc ca20 043d b2c3 2f3e 6bae 17be
000002c0: 04ac 01be ae86 453e a825 7fbd 7a14 08be
000002d0: 876a c33d 4a4d d2bd 37c5 9abd d05e 663d
000002e0: e259 27bc 6fd3 4bbd e4a9 e53c cb78 ba3d
000002f0: 8034 bc3a 03b8 0b3e 9f41 c93c c7d0 4abd
00000300: dfe2 d5bd 29b2 623d a289 05bd c315 3fbe
00000310: 52bb af3b 4ec9 153d 7e63 fdbd bf5a 03be
00000320: 6878 733a c268 273e 2c42 8e3d 01f4 61be
00000330: 1a6d 4d3e 81a6 893d 2f1e 0cbe 2bb6 703d
00000340: 2d65 913d f8c8 bdbc 3038 c4bd 0d3f 91bd
00000350: a0d5 863d 4591 ea3b 1f16 c4bc e9dd b4bc
00000360: 3e7a 03bd d367 953c 6fb2 7a3e 8ab1 d73c
00000370: 87e2 07be 1e35 b53e bdff 453e 72cd ebbd
00000380: 4478 3cbc b5fd 983b b37d 043d f0a6 c5be
00000390: 0ed1 f7bd da4c c53e ff03 a03e 5b0d 1cbe
000003a0: bf81 a1be 1078 fe3d bb4c 9dbd e008 dc3c
000003b0: e466 eabd 0a9b d1bc 4d9e 6d3e 4748 443e
000003c0: 3c7f 94be ba22 d5be 790a b7bc 7999 ba3c
000003d0: ba60 093e e6c6 afbd a977 f63d 3edf 383e
000003e0: c818 ad3c b889 213b 4b6c f63d 68d1 98bd
000003f0: e0ff a03d ec99 a1bd b27f 5ebd 032b 003d
0.05538501 0.11063157 0.04954062 0.059980594 0.018702049 -0.010999208 0.015634207 0.04676968
0.015010044 -0.11471647 -0.09764525 -0.10377496 -0.078913026 -0.057828333 -0.124329165 -0.17598625
-0.14206715 -0.1117514 -0.035328984 0.016834848 -0.07644462 -0.023866614 0.024563674 -0.055030473
-0.019415822 -0.031367164 -0.0942786 -0.17582612 -0.10156096 -0.06011325 -0.3296494 -0.1861756
0.03090733 -0.20059918 -0.055233687 -0.07463323 0.101605706 0.17092404 0.037744835 0.0013087163
-0.039332353 -0.006813795 0.057126667 -0.048756126 -0.07854022 -0.23729935 -0.24502486 -0.12832995
-0.22020914 -0.18902166 -0.12608148 -0.10742475 -0.21399711 -0.19610906 0.26429236 0.15665868
0.088015296 0.32257348 0.20262206 0.1715344 0.31814846 0.09502299 0.1980872 -0.18274622
-0.23447447 -0.1880838 -0.17965385 -0.19267082 -0.20118606 -0.062081866 -0.15407783 -0.19041267
-0.024545517 0.13268591 -0.13559686 -0.011427991 -0.13800131 -0.101726644 0.08544015 0.021629686
0.09283614 -0.1129359 -0.01900902 0.0044595413 -0.07346416 -0.005154009 -0.005568324 0.08872332
-0.023638297 -0.033192486 0.031817928 -0.40095806 0.21975943 -0.039178994 -0.016850859 -0.11955597
0.0004959688 0.22170551 -0.24531648 0.04793493 0.04145926 0.06604066 -0.00863618 0.047555216
0.025278179 0.02143196 -0.0023399228 -0.092501104 0.05803119 0.069917135 0.06878004 0.12357445
-0.1230916 0.2016487 0.06625739 -0.097939074 -0.051146958 0.065373816 -0.118185036 -0.0405268
-0.014569772 -0.26755804 -0.016369183 -0.17477904 -0.032403916 0.028376175 -0.3505675 -0.23404716
0.1555573 -0.2521019 -0.019891482 0.50155246 0.056530774 0.062417198 -0.20031571 0.20784998
-0.14791922 0.05203466 -0.14021362 0.07676284 -0.203924 0.09270428 0.3741716 0.06504077
0.017519364 -0.1887443 0.09539217 0.043819103 -0.022855796 -0.0006517058 0.01799747 0.018990966
0.02447002 0.095162265 -0.14057581 -0.04109366 -0.022600709 0.055661436 -0.0041336287 -0.040655397
-0.07876742 0.11857445 -0.024372084 0.0132303545 -0.009913011 -0.035777945 0.02223931 -0.00822568
-0.031921666 0.0062694536 0.0080866655 0.12821208 -0.022070978 0.032257833 0.17164496 -0.14812629
-0.12663275 0.19289657 -0.06229177 -0.13289061 0.09541803 -0.10268648 -0.07557147 0.056242764
-0.010214301 -0.049762186 0.028035112 0.09105071 0.0014358908 0.13644414 0.024567423 -0.04951551
-0.10443663 0.055345688 -0.03260196 -0.18660645 0.0053629065 0.036568932 -0.12372492 -0.12827586
0.0009287656 0.16348556 0.06946215 -0.22065736 0.2006115 0.06721211 -0.13683389 0.05876748
0.07099376 -0.023167118 -0.095810294 -0.07092104 0.065837145 0.0071584308 -0.02393633 -0.022078471
-0.032099 0.018237984 0.2448213 0.026329774 -0.13270007 0.35392088 0.19335838 -0.11513795
-0.011503283 0.004668916 0.03234644 -0.38603926 -0.12100421 0.38535196 0.3125305 -0.1523947
-0.315443 0.12425244 -0.07680651 0.0268597 -0.11445406 -0.025586624 0.23204918 0.19168197
-0.29003322 -0.41628057 -0.022343861 0.02277826 0.13415805 -0.08582859 0.12034542 0.1805391
0.02112998 0.0024648737 0.12032374 -0.07461816 0.07861304 -0.078906864 -0.054321 0.03129102

skip_conv.bias f4 [8]
00000000: 568d 2ebf 83b2 18bf 049b 09be a6c9 32bf
00000010: 1cbf 6b3c 0c11 77be f288 04bf 3b72 9cbe
-0.6818441 -0.5964739 -0.1343804 -0.6983894 0.014388826 -0.24127597 -0.5177146 -0.305559

depthwise3.weight f4 [8, 1, 3, 3]
00000000: 50d9 aabe feb3 e1bd 2248 aabe 908e 8dbc
00000010: 7a32 4fbd 70a5 0abd dc96 b0be c927 76bd
00000020: 9626 8abe f759 903e 8b33 513e ffb5 933e
00000030: 0d7e 093e e93e 87bb 2eab 643e 817f e13e
00000040: 1dc9 243e 71f7 9c3e 5474 0fbf 4138 9cbe
00000050: 4243 2abf 683f 38be c1eb c9bc 18e3 2bbe
00000060: f3f5 2dbf 7b57 9fbe d036 3dbf 0cca 83be
00000070: 23a3 22be aaf2 4bbe cb66 0ebe 8e9f 75bd
00000080: 30bf 62be f150 a1be 9122 33be c958 73be
00000090: beba d9bd 9362 13be bc52 53be dc15 1bbe
000000a0: 4755 ddbd d707 0cbe c392 2ebe 5b87 aebd
000000b0: ba5a 28be 97be 923e e432 fb3b 42cf 983e
000000c0: d8e1 24bc 41b2 b73d a085 df3c 6aae 8c3e
000000d0: 9d86 983d a373 b53e ffbf e8be adae 2fbe
000000e0: 6a9a dabe 7397 d0bd 0bfa f8ba 2e53 f4bd
000000f0: 0aed dcbe f117 4cbe 4577 c6be 3213 3abe
00000100: 1922 26be a17d 6bbe 04e3 a7bd 3760 e23d
00000110: 55cf 7fbd 36ac 7abe 5f31 fbbd fda9 54be
-0.3336892 -0.11020659 -0.33258158 -0.017279893 -0.050585248 -0.03384918 -0.34490097 -0.060096536
-0.26982564 0.28193638 0.20429818 0.2884979 0.13426991 -0.0041273725 0.22330925 0.4404259
0.16092344 0.30657533 -0.5603688 -0.30511668 -0.6650888 -0.17992938 -0.024648549 -0.16785848
-0.67953414 -0.3112143 -0.7391176 -0.25740087 -0.15882544 -0.19916788 -0.139064 -0.059966616
-0.22143245 -0.31507066 -0.17493655 -0.23764338 -0.10631321 -0.14393072 -0.2063703 -0.15145057
-0.10807281 -0.13674866 -0.17048173 -0.08521911 -0.1644086 0.28661034 0.0076659787 0.29845625
-0.010063611 0.08969546 0.027285397 0.27476817 0.074475504 0.35439786 -0.4545898 -0.17156477
-0.42695934 -0.10185137 -0.0018995417 -0.11929928 -0.43149596 -0.19931008 -0.3876287 -0.18171385
-0.16223945 -0.22997142 -0.08197597 0.11053508 -0.062453587 -0.24479756 -0.12265276 -0.2076797

depthwise3.bias f4 [8]
00000000: 5529 593f c9b5 ef3e 1dc9 38bc 4f2d f5be
00000010: b8ca adbe a2c7 c6be f7a7 ba3e c8c4 c0be
0.8482869 0.4681838 -0.011278418 -0.4788613 -0.33943725 -0.38824183 0.36456272 -0.37650132

pointwise3.weight f4 [8, 8, 1, 1]
00000000: 6a7b 1b3e e158 d33e 3b2d 92bd fb5f bf3b
00000010: fb71 123e 7c35 0f3e c7b7 213e b5ba e73e
00000020: efb5 bc3e 726e 4c3e 4dec a5bd 3046 39be
00000030: a24c 5fbe ab85 9abe 9ca3 973e 93c1 7f3d
00000040: 175e bf3e a69e 583e bceb 92bd e4ac 5fbe
00000050: b59c 69be a63a 95be 2e6d 983e a04f af3d
00000060: 2436 9fbd 1c5b 9bbd 8e30 43bf 80c7 bd3e
00000070: bd93 ebbd 4c15 aabd 1463 4cbd 5bbf 72be
00000080: a3c4 a0bd 946b 72bd 6186 22bf f007 9b3e
00000090: 4d61 c2bd 9f15 b0bd 56b2 39bd adb5 46be
000000a0: e2de ccbd a4a7 04be ccda 75bf d84a dc3e
000000b0: d69b 04be 5280 98bd 4803 a8bd ed0e 98be
000000c0: 277a f73e 6151 813e 3279 cebd 41de 7cbe
000000d0: d7f4 96be c479 bfbe 39da ba3e e9d5 b93d
000000e0: 9b26 aa3e 9f8f 3f3e ab43 83bd c232 30be
000000f0: e97a 53be 0285 85be 6e29 893e 7645 963d
0.15183797 0.41278747 -0.07137533 0.005840299 0.14301293 0.13985246 0.15792762 0.45259634
0.36857554 0.19964007 -0.081017114 -0.1809318 -0.21806577 -0.30180106 0.29617012 0.062440466
0.37376472 0.2115427 -0.07173869 -0.21843296 -0.22813685 -0.29146308 0.29770797 0.08560109
-0.077739984 -0.07585737 -0.76245964 0.3706627 -0.11502788 -0.08304843 -0.049899176 -0.23705809
-0.078500055 -0.059184626 -0.63486296 0.30279493 -0.09491215 -0.08597874 -0.04533609 -0.19405241
-0.10003449 -0.12954575 -0.9603698 0.4302585 -0.12950072 -0.0744635 -0.08203751 -0.29698887
0.48335382 0.252574 -0.1008171 -0.24694158 -0.29483673 -0.37397587 0.36494616 0.09074003
0.3323258 0.18707131 -0.06409391 -0.17206863 -0.20652355 -0.2607804 0.2678942 0.07337467

pointwise3.bias f4 [8]
00000000: 7721 b1be 6da0 263f 9e89 d43e 80c5 273e
00000010: b341 fb3a 8685 02bd 7d0d 093f ae14 173f
-0.34595844 0.6508854 0.41511244 0.16383934 0.001916936 -0.03186562 0.53536206 0.5901593

bn4.weight f4 [8]
00000000: f059 2840 3e50 7940 2f31 7440 f251 8940
00000010: fa45 9240 e3bb 9f40 23f8 8740 f4b6 8140
2.6304893 3.8955226 3.815502 4.291253 4.571042 4.9916854 4.24904 4.053583

bn4.bias f4 [8]
00000000: 4b1f e9bf 526b 10bf c5f6 05bf dc2a 7a3e
00000010: 670c 6b3e cba0 843e c47f 12bf c64a 20bf
-1.8212675 -0.5641376 -0.52329665 0.24430412 0.2295395 0.25903925 -0.57226205 -0.62614095

bn4.running_mean f4 [8]
00000000: 9991 b1be d545 b73f 8bce 9c3f fe6a a13e
00000010: 1a97 003e 4560 043e c47d cb3f a63a a73f
-0.34681395 1.4318186 1.2250532 0.3152694 0.1255764 0.12927349 1.5897756 1.3064773

bn4.running_var f4 [8]
00000000: c493 033e ea70 a43e 9186 a53e 0136 3b3f
00000010: a5b4 013f bacb 953f 0502 063f 1ba0 833e
0.12849337 0.32117397 0.3232923 0.7312928 0.50666267 1.1702797 0.5234683 0.25708088

fc.weight f4 [2, 8]
00000000: 1588 3240 9b62 35bf bf29 41bf cb1f c140
00000010: 3620 bc40 f012 bb40 4fa5 2bbf dd8c 36bf
00000020: 7ad5 c0bf eda6 72c0 c8a3 78c0 2068 003f
00000030: e4d1 f23e 6b95 dd3e e6dd 5ac0 aa94 79c0
2.7895558 -0.70853585 -0.75454324 6.035131 5.878932 5.8460617 -0.67049116 -0.7130869
-1.5065148 -3.7914383 -3.8849964 0.5015888 0.4742576 0.4327806 -3.4197936 -3.8996987

fc.bias f4 [2]
00000000: 886b ce3f 957f 603f
1.6126566 0.87694675
